pth/model.pth (torch, 810965 bytes, 77 tensors)

conv.weight f4 [16, 3, 3, 3]
0	0x3ef5b31b	0.4798821
1	0x3f2f55d5	0.68490344
2	0x40234348	2.5509815
3	0xbe530a74	-0.20609456
4	0x3f203f70	0.625968
5	0x40434834	3.051282
6	0xbf9acab4	-1.209311
7	0xbeeaea76	-0.45882004
8	0x3f99069c	1.1955142
9	0x3f33d020	0.7023945
10	0x3f892595	1.0714594
11	0x4048da58	3.1383266
12	0x3eccf7db	0.4003285
13	0x3f7be2ee	0.9839314
14	0x409ca369	4.8949475
15	0xbf86aa4a	-1.0520718
16	0xbbf24821	-0.0073938523
17	0x3ffc4c68	1.9710817
18	0xbeaadb97	-0.3337066
19	0xbe17379a	-0.14767304
20	0x3f1a3f1c	0.6025255
21	0xbf6afaaa	-0.91788733
22	0xbda5bce8	-0.08092672
23	0x3f5feefe	0.8747405
24	0xbf8e7537	-1.1129521
25	0x3c117314	0.008877534
26	0x3f7f6bba	0.9977375
27	0x3f28bcc3	0.6591303
28	0x40276d9a	2.6160645
29	0x3fdefa6a	1.742017
30	0xbdd4aaae	-0.10384117
31	0x3f4f8225	0.8105796
32	0x3e9a8ba9	0.30184677
33	0xbf705c56	-0.93890893
34	0xbfc40cb9	-1.5316383
35	0xbf8c1315	-1.0943323
36	0x3f939048	1.1528406
37	0x4049c63b	3.152724
38	0x3fba742f	1.4566706
39	0xbf4db760	-0.80357933
40	0xbe77714f	-0.24164318
41	0xbfaffa5b	-1.3748277
42	0xbf87f337	-1.0621098
43	0xc009a940	-2.1509552
44	0xbfee51b7	-1.8618687
45	0x3f12620b	0.5718085
46	0x3fd26be0	1.6439171
47	0xbe0c4dca	-0.13701549
48	0xbe0f67f1	-0.14004494
49	0xbd3478b4	-0.044060424
50	0xbf469d5a	-0.7758385
51	0x3c87fb4e	0.016599324
52	0xbeb78b5f	-0.3584852
53	0xbf65b6ac	-0.8973186
54	0xbf6b7b0d	-0.91984636
55	0xbf6e4cb7	-0.9308581
56	0xbf968246	-1.1758506
57	0xbfc9bf73	-1.5761551
58	0xbf4df880	-0.80457306
59	0xbfca061c	-1.5783114
60	0xbfb43d36	-1.408118
61	0xbfa47888	-1.2849283
62	0xbf832012	-1.0244162
63	0x3e83c44d	0.25735703
64	0x3f352b40	0.7076912
65	0xbeb789d9	-0.35847357
66	0x3f13bdf5	0.57711726
67	0x3fb24b3d	1.3929211
68	0xbf3d9625	-0.7405723
69	0xbf133a2c	-0.5751064
70	0xbef23382	-0.47304922
71	0xbfa27251	-1.2691137
72	0x3f33d4a5	0.70246345
73	0x40015470	2.0207787
74	0x3eb6d121	0.35706428
75	0x3fecf65d	1.8512684
76	0x404eaec9	3.229418
77	0x3f6a843e	0.91608036
78	0x3e731812	0.23739651
79	0x3f680e8e	0.9064721
80	0xbdb7d563	-0.08976247
81	0xbf26d76c	-0.6517246
82	0xbf8d93c4	-1.106072
83	0xbf0fd036	-0.5617708
84	0xbeb4d4c4	-0.35318577
85	0xbe77d705	-0.24203117
86	0xbec9bf1d	-0.3940362
87	0x3dc7853d	0.0974221
88	0x3f02f541	0.5115548
89	0xbec1a810	-0.37823534
90	0xbdf57e36	-0.119869635
91	0xbf12f0fb	-0.57398957
92	0xbe02f28f	-0.12787841
93	0xbd306711	-0.04306704
94	0x3e5d2048	0.21594346
95	0xbcdfd209	-0.027321832
96	0x3eec330f	0.46132705
97	0x3f4d2385	0.80132324
98	0xbdba0050	-0.09082091
99	0xbf113428	-0.5672021
100	0xbf7cac92	-0.9870082
101	0xbeff1165	-0.49817958
102	0xbe4e9e50	-0.20177579
103	0xbe6bdd54	-0.23033649
104	0xbe9a9834	-0.30194247
105	0x3d984a9f	0.07436108
106	0x3de238a5	0.1104596
107	0xbed2d770	-0.4117999
108	0x3fab33e8	1.3375216
109	0x4005d744	2.0912638
110	0x3fad98bc	1.3562236
111	0x400589cb	2.0865352
112	0x3f877b3f	1.0584487
113	0x3f96add0	1.1771793
114	0xbeaf5a2b	-0.3424848
115	0xbec6909f	-0.38782212
116	0xbe7842a0	-0.24244165
117	0xbffb3a86	-1.9627235
118	0xbff79803	-1.9343265
119	0xbfc2f049	-1.5229579
120	0xbf3186cc	-0.6934631
121	0xc04a4c9c	-3.1609259
122	0xbf6ad19e	-0.917261
123	0xbf774e52	-0.9660388
124	0xbfb95bfe	-1.4481199
125	0x3e850042	0.2597676
126	0xbf0fd707	-0.5618748
127	0xbe555128	-0.2083174
128	0xbf66af12	-0.90110886
129	0x3fa407ab	1.281484
130	0xbed995c6	-0.4249708
131	0xbe29abab	-0.16569392
132	0x3f84b2ad	1.0367028
133	0x3f5fc688	0.8741231
134	0x3f644d53	0.8918049
135	0xbe81956b	-0.2530931
136	0x3f412fd6	0.75463617
137	0x3f245447	0.641911
138	0x3f4e4ef0	0.805892
139	0x4010f57b	2.264983
140	0x3fe67cf9	1.8006889
141	0x3fb4106c	1.4067512
142	0x3ea13886	0.31488436
143	0xbcaa6650	-0.02080074
144	0xc01a761f	-2.4134595
145	0xbfbcfaa7	-1.4763993
146	0xbf527bc4	-0.822201
147	0xc00ffa68	-2.2496586
148	0xbf8a5ee8	-1.0810213
149	0xbf019e25	-0.50631934
150	0xbf60b24c	-0.8777206
151	0xbfc7e111	-1.561556
152	0xbf3e4b2d	-0.7433346
153	0xbf4dadd2	-0.80343354
154	0x3f1c97dd	0.61169225
155	0x4002d826	2.0444427
156	0xbf781367	-0.96904606
157	0x3f81b2df	1.0132712
158	0x4021b35c	2.5265722
159	0xbd8d439d	-0.06897662
160	0x3f168ca7	0.5880837
161	0x3fb5d8f4	1.4206834
162	0x3f0500b4	0.519542
163	0x3fc7411f	1.5566748
164	0x3eb97690	0.36223269
165	0xbcdbf99a	-0.026852418
166	0xbfff05e2	-1.992367
167	0x402f6a1a	2.740851
168	0x3de709d8	0.112811744
169	0xc0205fb9	-2.5058424
170	0xbf465456	-0.77472436
171	0x3f5d41fd	0.86428815
172	0x3e83ea2e	0.25764602
173	0xbf9553ed	-1.1666237
174	0x3fae6441	1.3624345
175	0xc03fa16f	-2.9942281
176	0x3fbf140f	1.4927996
177	0x40172f3a	2.3622575
178	0xbfab9096	-1.3403499
179	0xbe79e5e5	-0.24404104
180	0xbf56afe8	-0.8386216
181	0xbebd8186	-0.3701288
182	0xbfea4201	-1.8301393
183	0xbeb025f4	-0.34403956
184	0xbfc1c230	-1.5137386
185	0x3f968529	1.1759387
186	0x3fa27b5b	1.2693895
187	0x3f65dcf5	0.8979028
188	0x3f9c73c2	1.2222826
189	0x3efb840f	0.4912419
190	0x3f120753	0.57042426
191	0x3ce36a00	0.027760506
192	0x3f8b3708	1.0876169
193	0x3f9aec74	1.210341
194	0x3f8e7caf	1.11318
195	0xbea8b266	-0.32948607
196	0x3d936b25	0.071981706
197	0x3ebee666	0.37285155
198	0x3f0fa5fa	0.56112635
199	0x3f0bbcfa	0.5458523
200	0xbe2e8fea	-0.17047086
201	0x3f993e98	1.1972227
202	0x3fc8bc60	1.5682487
203	0x3fa453d6	1.2838085
204	0x3d39556b	0.045247477
205	0x3f3d31f2	0.73904335
206	0x3f54fc73	0.83197707
207	0xbe97d199	-0.29652098
208	0xbd5ea9bd	-0.054361094
209	0xbf340214	-0.7031567
210	0x3ec96a1f	0.39338776
211	0x3f42cc2a	0.7609278
212	0x3f139c02	0.57659924
213	0xbe0fb5fb	-0.14034264
214	0x3df15bfd	0.117851235
215	0x3d71aa3b	0.059000235
216	0x3ed2befb	0.41161332
217	0x3f11af5b	0.56908196
218	0x3ef58d2c	0.47959268
219	0x40029d9b	2.0408695
220	0xbf5a395a	-0.8524376
221	0xbff7aeb7	-1.9350194
222	0x3eba9705	0.36443344
223	0xbf8d1f20	-1.1025124
224	0xbeb531af	-0.35389468
225	0x3fabaeb9	1.3412696
226	0x3e8675ca	0.2626174
227	0xbf3dda91	-0.7416163
228	0x404ba804	3.1821299
229	0xbf8f89be	-1.121391
230	0xc025b39e	-2.589088
231	0x3f916ebc	1.1361918
232	0xbf489892	-0.78357804
233	0x3dcf3abe	0.10118626
234	0xbec8afcb	-0.3919662
235	0xbe8d939e	-0.27651685
236	0xbee55786	-0.44793338
237	0x401b4c89	2.4265463
238	0xbd8a51fc	-0.067539185
239	0xc01d9ad5	-2.4625752
240	0x3fc01118	1.5005217
241	0xbf0e934c	-0.5569351
242	0xbefcd941	-0.49384502
243	0x3e9a4de8	0.30137563
244	0x4017e1d4	2.3731585
245	0xbe95691e	-0.2918176
246	0x3dcf4a1e	0.101215586
247	0xc019bde8	-2.402216
248	0x3d862322	0.0654967
249	0x3f932d79	1.1498252
250	0xbec0f14b	-0.37684092
251	0x3fb60204	1.4219365
252	0xbf25d013	-0.6477062
253	0x3f6eeb50	0.9332781
254	0xbedaa2e3	-0.42702398
255	0xbf9685d3	-1.175959

bn.weight f4 [16]
0	0x3f9aab88	1.2083597
1	0x3fe169bd	1.7610394
2	0x3fb52df2	1.4154646
3	0x3ec5c104	0.38623822
4	0x3fcc5014	1.5961938
5	0x3fe7191a	1.8054535
6	0x4022c188	2.5430622
7	0x3e7c5c11	0.24644496
8	0x401c9c79	2.4470503
9	0x3ff5f6e9	1.9215976
10	0x3fb867be	1.440666
11	0x40120801	2.2817385
12	0x3f8d8ed5	1.1059214
13	0x3fac9c55	1.3485209
14	0x3e96ed06	0.2947771
15	0x3fd3ee4f	1.6557101

bn.bias f4 [16]
0	0xbf9979e8	-1.1990328
1	0x3fc5fe65	1.546826
2	0xbd9f7427	-0.07785826
3	0xbfac5c3b	-1.3465647
4	0x3f510919	0.81654507
5	0x3f1a73ce	0.60332954
6	0x4046e772	3.1078763
7	0xbf3a569b	-0.727884
8	0x3fe5aff9	1.7944328
9	0x4049b380	3.1515808
10	0x3f3d2ae1	0.73893553
11	0x3fe7ecd4	1.8119149
12	0xc0006105	-2.0059216
13	0x3f4623d9	0.7739845
14	0xbf80ab26	-1.005223
15	0x3fa0a36c	1.2549872

bn.running_mean f4 [16]
0	0x410c723c	8.777889
1	0x3ebbd6e6	0.36687392
2	0xbf589406	-0.84600866
3	0xc02176e4	-2.5228815
4	0xbfa55268	-1.2915773
5	0x3f62816b	0.88478726
6	0xbd65bf0b	-0.056090396
7	0x40b5f8c1	5.6866155
8	0xbe72fabd	-0.23728462
9	0xbda2d599	-0.07950897
10	0xc0e6db76	-7.2142897
11	0xbef45049	-0.47717503
12	0x3f827341	1.0191423
13	0x3f19c30a	0.6006323
14	0x3fd97d29	1.6991321
15	0x3ed047e5	0.4067985

bn.running_var f4 [16]
0	0x41b047ef	22.035124
1	0x40ab2b46	5.3490324
2	0x404ecf6f	3.2314107
3	0x3ffb7f8a	1.9648297
4	0x3f9c6320	1.221775
5	0x4004281b	2.0649478
6	0x3f287162	0.6579801
7	0x40ea3610	7.3190994
8	0x4071f65b	3.7806613
9	0x3f709bc7	0.939877
10	0x4164e2fd	14.305417
11	0x40b12f66	5.537036
12	0x40481a4b	3.1266048
13	0x405d1818	3.4545956
14	0x3f308f1f	0.68968385
15	0x403a68c1	2.9126437

layer1.0.conv1.weight f4 [16, 16, 3, 3]
0	0xbf9ec313	-1.2403282
1	0xbf8cf1f2	-1.1011336
2	0xbf8b98a3	-1.0905956
3	0xbfc1b08b	-1.5132002
4	0xbfeafe94	-1.8358941
5	0xbfd14c91	-1.6351491
6	0xbf8a0ec5	-1.0785757
7	0xbfc47074	-1.5346818
8	0xbfda6b70	-1.7064037
9	0xbefd2f00	-0.4944992
10	0x3eda331a	0.42617112
11	0x3fa15e66	1.2606933
12	0x3ea26f68	0.3172562
13	0x3ebddc97	0.3708236
14	0x3f85e200	1.0459595
15	0x3fa8645d	1.3155628
16	0xbda86d97	-0.082240276
17	0xbefcbe05	-0.49363723
18	0xbff1857d	-1.8868862
19	0xbf8152e1	-1.0103418
20	0x3f6f60ae	0.93506896
21	0xbf8c7c6f	-1.0975474
22	0xbf8b89a9	-1.0901386
23	0x3ef42781	0.4768639
24	0x3f25cf81	0.6476975
25	0xbb977dc2	-0.004623146
26	0x3f861a4b	1.0476774
27	0xbf063acd	-0.5243347
28	0xbeb382bb	-0.35060677
29	0xbd1b6dec	-0.037946627
30	0xbed3b568	-0.4134934
31	0xbeaba0b0	-0.33521032
32	0xbe023e39	-0.12719049
33	0xbf565654	-0.83725476
34	0xbec49d1b	-0.38401112
35	0xbdc946aa	-0.09827931
36	0x3f567b57	0.8378195
37	0x3f1d52fd	0.61454755
38	0x3f111a0f	0.5668039
39	0x3f5b706f	0.85718435
40	0x3f812fa2	1.0092661
41	0x3f643b38	0.8915286
42	0x3f99c7a4	1.201405
43	0x3f93a171	1.1533643
44	0x3f935d65	1.1512877
45	0xc007d9a4	-2.1226587
46	0xc04b832f	-3.1798818
47	0xc0136549	-2.303057
48	0xc06c1e3f	-3.689346
49	0xc0af7bcc	-5.483862
50	0xc01d1593	-2.4544418
51	0xc02f00fd	-2.7344353
52	0xc08ffb8c	-4.4994564
53	0xc00b98cd	-2.1812012
54	0xbff41f15	-1.9071985
55	0xbf56b61d	-0.8387163
56	0xbf622a5e	-0.883459
57	0xbfac5734	-1.3464112
58	0x3f6541ae	0.89553344
59	0x3f80ce56	1.0062969
60	0x3f7fde00	0.9994812
61	0xbc33e64b	-0.010980199
62	0x3ea5af77	0.32360432
63	0x3f35f7ad	0.7108105
64	0x3f1ddb09	0.61662346
65	0x3ef76ea8	0.48326612
66	0x3f195707	0.5989842
67	0x3ea39de2	0.31956393
68	0x3c5091dd	0.012730089
69	0x3e2ab5ef	0.16670965
70	0xbe175ee1	-0.14782287
71	0xbe6efeca	-0.23339382
72	0x3e51aef3	0.20476894
73	0x3d9317c7	0.071822695
74	0x3f2ec5b3	0.68270415
75	0x40138d58	2.305502
76	0x3ff77411	1.9332296
77	0x3f791292	0.9729396
78	0x3fb23131	1.3921262
79	0x3f7457b2	0.9544631
80	0x3f019db8	0.50631285
81	0xbe6ed741	-0.233243
82	0xbda905ed	-0.082530834
83	0x3dc87406	0.09787755
84	0xbf5402ba	-0.8281666
85	0xbe2c8465	-0.1684738
86	0xbe8ccf23	-0.27501783
87	0x3eefc6ff	0.4683151
88	0xbeafbc19	-0.34323195
89	0xbce603bf	-0.028077958
90	0xc017656a	-2.3655648
91	0xbf8b363c	-1.0875926
92	0xbd955ae4	-0.07292727
93	0xc00ad283	-2.1690986
94	0xbf539a1b	-0.8265702
95	0x3f081581	0.5315781
96	0xbf930d76	-1.1488483
97	0xbef8e590	-0.48612642
98	0x3eea63db	0.4577931
99	0x3f6ba421	0.92047316
100	0xbdae5b0d	-0.0851346
101	0xbf0baef9	-0.5456386
102	0x3f0b093b	0.5431096
103	0x3ee0feb2	0.43944317
104	0x3df48a71	0.11940468
105	0xbfba4c14	-1.4554467
106	0xbc341e26	-0.010993516
107	0x3f04e69c	0.5191438
108	0xbfb201d9	-1.3906814
109	0xbfe029ea	-1.7512791
110	0xc00487c9	-2.0707877
111	0xbfe416d3	-1.7819465
112	0xc01b060a	-2.4222436
113	0xc032b452	-2.7922559
114	0xbff04642	-1.8771441
115	0xc034b094	-2.8232775
116	0xc04aa674	-3.1664095
117	0xbf1b647c	-0.607002
118	0xbe8c3d21	-0.27390388
119	0x3f8082b6	1.003989
120	0xbeec90de	-0.46204275
121	0xbf284b9a	-0.6574036
122	0x3f1a52b8	0.6028247
123	0x3f7e8cf5	0.99433833
124	0x3f3f027b	0.7461316
125	0x3fdfd905	1.7488104
126	0xbefda529	-0.4954007
127	0xbe946a1e	-0.2898721
128	0xbd1d7ba1	-0.03844798
129	0xbf078405	-0.5293582
130	0xbe9eab58	-0.309901
131	0xbb2cbd46	-0.0026357933
132	0xbe36b8c0	-0.17843914
133	0xbd5351dd	-0.051591743
134	0x3d6c8f19	0.057753656
135	0x3eb232cd	0.34804383
136	0xbf189c53	-0.5961353
137	0xbebf8e2a	-0.3741315
138	0x3f871634	1.0553651
139	0x3e8324df	0.25614068
140	0xbee592de	-0.44838613
141	0x3f27ffbc	0.65624595
142	0x3e63d021	0.22247364
143	0xbd7c8356	-0.06164869
144	0xbfe46397	-1.7842892
145	0xbf2d54a0	-0.6770725
146	0xbf62342a	-0.88360846
147	0xbf37fab3	-0.7186691
148	0xbeabc5b4	-0.33549273
149	0xbf859b23	-1.0437969
150	0xbe080812	-0.13284329
151	0xbf50b37b	-0.81523865
152	0xbf6e9cee	-0.93208206
153	0x3f14f50c	0.5818641
154	0xbf97781d	-1.1833531
155	0xc036e651	-2.8578074
156	0xbd106e9f	-0.035261746
157	0xbed7719c	-0.42078865
158	0xbea5aea1	-0.32359794
159	0xbfdf5709	-1.7448436
160	0xbdc69533	-0.09696426
161	0x3fa07e65	1.2538573
162	0xbeb1210e	-0.3459553
163	0x3e92259f	0.28544328
164	0x3e602a63	0.21891169
165	0xbfc6bdac	-1.5526633
166	0xbe87c002	-0.26513678
167	0x3fccf123	1.6011089
168	0xbfe57fd2	-1.7929633
169	0xbe58eb98	-0.21183622
170	0x4017475e	2.363731
171	0xbf4ac939	-0.7921329
172	0xbe865a1e	-0.2624063
173	0x3d8f088f	0.06984054
174	0xbeda3da9	-0.42625168
175	0xbc85eeaf	-0.016349165
176	0xbe96abba	-0.29427892
177	0x3eed8e68	0.4639771
178	0x3e85f912	0.26166588
179	0xbf5e8657	-0.86923736
180	0x3c04bde1	0.008101911
181	0xbeff601c	-0.49878013
182	0xbf4a3d24	-0.78999543
183	0x3ea66a62	0.3250304
184	0xbf8c6a89	-1.0970012
185	0xbf58f1cf	-0.8474397
186	0x3fadca93	1.3577446
187	0x3f1a0333	0.6016113
188	0xbe0f88d0	-0.14017034
189	0xbf18da43	-0.5970804
190	0xbf92d83b	-1.1472238
191	0xbf36f6ed	-0.7147053
192	0xbe53b2bd	-0.20673652
193	0x3f9653e4	1.1744351
194	0x3e562fea	0.20916715
195	0x3e57436a	0.2102181
196	0x3f383e89	0.7197042
197	0x3e91bc88	0.2846415
198	0xbf90b9ba	-1.1306679
199	0xbf35786c	-0.70886874
200	0x3f76e580	0.9644394
201	0x3e164bef	0.14677404
202	0xbff67523	-1.9254497
203	0x3f39d0ae	0.72584045
204	0xbfb6d5d5	-1.4284006
205	0xbf885430	-1.0650692
206	0x3f87553c	1.0572886
207	0xbf8353d6	-1.025996
208	0xbeef4cb6	-0.46738213
209	0xbd54f257	-0.051988926
210	0xbf02ac65	-0.51044303
211	0x3e916a87	0.28401586
212	0x3e8bd5c4	0.27311528
213	0xbdb4a323	-0.08820178
214	0x3eadf988	0.3397944
215	0x3e0a9c48	0.13536179
216	0xbf453f20	-0.77049446
217	0xc00a6997	-2.1626947
218	0xbebf7ab0	-0.3739829
219	0xc014662e	-2.3187366
220	0xc0eeb2d4	-7.4593296
221	0xbfb009b1	-1.3752958
222	0xbf81aa38	-1.0130072
223	0xc0169f6e	-2.3534808
224	0x3eae8dcc	0.34092557
225	0x3fb04ed7	1.377406
226	0x3f2b1588	0.6682973
227	0x3d55dc9d	0.052212346
228	0x3fe00257	1.7500714
229	0xbfb28e2e	-1.394964
230	0xbf2959ae	-0.66152465
231	0x3f5775b2	0.84163964
232	0x3fad7a0c	1.3552871
233	0x3f6e7a53	0.931554
234	0x3fd68b64	1.6761289
235	0x3f021246	0.50809133
236	0xbf23107d	-0.63697034
237	0x3fe44f97	1.7836789
238	0x3f288143	0.6582224
239	0xbee750ee	-0.45178932
240	0x3f63fb77	0.8905558
241	0x3f323bd1	0.6962252
242	0xbe9ace77	-0.30235645
243	0x3f022356	0.5083517
244	0x3e344a93	0.17606573
245	0x4002492c	2.035716
246	0x3ed35f1d	0.41283503
247	0xbfd3a233	-1.6533874
248	0xbf7e7167	-0.9939179
249	0x3fd6a31d	1.6768528
250	0xbbd91884	-0.006625237
251	0xbf10cef0	-0.5656576
252	0xc0024212	-2.0352826
253	0xbff35a90	-1.9012012
254	0xbfd066f1	-1.6281415
255	0xbfb84ae5	-1.4397856

layer1.0.bn1.weight f4 [16]
0	0x3f3d27b3	0.738887
1	0x400fbbe7	2.2458436
2	0x3fac9755	1.3483683
3	0x3fb1808f	1.3867358
4	0x3fa9c0f4	1.326201
5	0x3fbafb73	1.4607986
6	0x40319343	2.7746131
7	0x4001af7d	2.026336
8	0x3fb12d78	1.3842001
9	0x3fbd1530	1.4772091
10	0x3fe6e49b	1.8038515
11	0x4006ab8d	2.1042206
12	0x3f2fdc66	0.68695676
13	0x404b56ea	3.1771798
14	0x3fac57dd	1.3464314
15	0x3f957c63	1.1678585

layer1.0.bn1.bias f4 [16]
0	0x3ead3a2d	0.33833447
1	0x401dd4da	2.4661164
2	0xbeb7fcee	-0.35935158
3	0xbed1722a	-0.40907413
4	0xbeca926a	-0.3956483
5	0xbf6cd370	-0.9251013
6	0x40867d93	4.202829
7	0x3fb86632	1.4406188
8	0xbf520dbe	-0.8205222
9	0xbebcb978	-0.3686025
10	0xbf6d81d5	-0.9277623
11	0x3f1e52d9	0.61845165
12	0x3f0f2462	0.5591489
13	0x400089d5	2.0084126
14	0xbf330bc3	-0.6993982
15	0xbf375fd0	-0.71630573

layer1.0.bn1.running_mean f4 [16]
0	0xc12028e2	-10.009981
1	0xc24e7439	-51.6135
2	0xc1f359dd	-30.418879
3	0xc21370fd	-36.86034
4	0xc283ee23	-65.96511
5	0xc1e6e1be	-28.860226
6	0xc0e5f5e6	-7.186267
7	0xc26369e0	-56.853394
8	0x3f59f786	0.85143316
9	0xc2d3a849	-105.82868
10	0xc2128384	-36.628433
11	0x41938ba0	18.443176
12	0xc1193c8c	-9.577282
13	0x403dceab	2.965739
14	0xc2c6d546	-99.41655
15	0xc2787318	-62.112396

layer1.0.bn1.running_var f4 [16]
0	0x44983ee0	1217.9648
1	0x44d6ba53	1717.8226
2	0x446c9698	946.353
3	0x44c1078b	1544.2357
4	0x449eb3d5	1269.6198
5	0x44856d81	1067.422
6	0x43991512	306.1646
7	0x442dfb77	695.92914
8	0x4493fb96	1183.862
9	0x44c95aa9	1610.8331
10	0x44815f4d	1034.9781
11	0x44c76925	1595.2858
12	0x44803204	1025.563
13	0x4487a518	1085.1592
14	0x450f7d2b	2295.823
15	0x442fad24	702.7053

layer1.0.conv2.weight f4 [16, 16, 3, 3]
0	0x3ef0e4d4	0.47049582
1	0x3bf66165	0.0075189346
2	0xbedf1c53	-0.43576297
3	0x3fa5472d	1.2912346
4	0x3f5b64a8	0.85700464
5	0xbfdd460d	-1.7287003
6	0x3f710d4f	0.9416093
7	0x3fbd28da	1.4778092
8	0xbd6d4e39	-0.057935927
9	0xbf5630b4	-0.83668065
10	0xbed7b04b	-0.42126688
11	0x403d63df	2.9592206
12	0xbfd28fe5	-1.6450163
13	0xbf6f63e8	-0.9351182
14	0x40a02701	5.004761
15	0x3cdb3200	0.02675724
16	0x3d138755	0.036017735
17	0x3fe93010	1.8217793
18	0x3e0785d0	0.13234639
19	0xbf33edda	-0.7028481
20	0xbf307f7f	-0.68944544
21	0x3f6dec31	0.92938524
22	0xc00a3627	-2.1595552
23	0xbd81215a	-0.063051894
24	0x3f9c881d	1.2229038
25	0x3d86e344	0.06586316
26	0x3eaebbd1	0.34127668
27	0x3f5cb81c	0.8621843
28	0x3ea90131	0.3300872
29	0xc000849e	-2.0080943
30	0x3d329ea8	0.043608338
31	0x3f5cffc0	0.86327744
32	0xbf572ad6	-0.8404974
33	0xbfc1f022	-1.5151408
34	0xbee6636a	-0.44997722
35	0xbebaee84	-0.36510098
36	0xbf6710f3	-0.9026024
37	0xbff21da8	-1.89153
38	0x3e69dcb5	0.228381
39	0xbe27cc94	-0.16386634
40	0xbf80cd52	-1.0062659
41	0x3e01160f	0.12606071
42	0x3f575691	0.84116465
43	0x3efe8ef8	0.49718451
44	0x3e3db50e	0.18526098
45	0x3fcc6c49	1.5970546
46	0xbe1bfaf2	-0.15232447
47	0x3f967a4e	1.1756074
48	0x3f28b2eb	0.6589801
49	0xbf378796	-0.7169126
50	0xbe0ae38f	-0.13563369
51	0x3ef03fe0	0.46923733
52	0x3fc36118	1.5264006
53	0x3f831afe	1.0242612
54	0x3ec3e7bb	0.38262734
55	0xbe80b359	-0.2513683
56	0xbe82636e	-0.25466484
57	0xbfb9957c	-1.4498744
58	0x404a36fd	3.1596062
59	0xc028c58f	-2.637058
60	0x3e4cf415	0.20014985
61	0xbeb03c6a	-0.34421092
62	0xbf137bdf	-0.5761089
63	0xbe22fa1f	-0.15915726
64	0x3f1a6b89	0.60320336
65	0x3dcc2f7f	0.09969997
66	0xbf07d4f3	-0.5305931
67	0x403b56fb	2.9271839
68	0xbf879b82	-1.0594332
69	0xbcb2a165	-0.021805475
70	0xbff7ffe0	-1.9374962
71	0xbf05bd6e	-0.5224217
72	0x3f685fe3	0.9077131
73	0xbf143712	-0.5789653
74	0x3f7164d9	0.94294506
75	0xbe7f1328	-0.24909651
76	0xbf899b1b	-1.075046
77	0x3f32146c	0.6956241
78	0x3ea72737	0.32647106
79	0x3f26ed7a	0.6520611
80	0x3fc3a714	1.5285363
81	0xbfd92c9a	-1.6966736
82	0xbf7b57c0	-0.9818077
83	0x3f59e9de	0.8512248
84	0xbed26adf	-0.4109716
85	0xbe4abec2	-0.19799331
86	0x3f60af42	0.8776742
87	0x3ff3f5a7	1.9059342
88	0x400498b5	2.0718205
89	0x3ed358c7	0.4127867
90	0x3f38df66	0.7221588
91	0x3e76dbe9	0.24107327
92	0xbf0db59b	-0.5535523
93	0xbe97020c	-0.2949375
94	0x3eb6453c	0.35599697
95	0x3f17fc9e	0.5936984
96	0xbf51875d	-0.8184717
97	0x3f6566cb	0.89609975
98	0x3d8b7259	0.068089195
99	0x3ecc3de1	0.3989096
100	0x3f9a11b3	1.2036651
101	0x3da4b8bc	0.08043048
102	0xbf1cf42c	-0.61310077
103	0xbfca98e8	-1.5827913
104	0x4000a221	2.0098956
105	0xbfa708b1	-1.3049527
106	0xbfebe0bb	-1.8427957
107	0x3e8f06ce	0.2793488
108	0x3f1d3860	0.61414146
109	0xbe7b7ff7	-0.24560533
110	0xc008fa91	-2.1402934
111	0x3f0091e0	0.5022259
112	0x3f91e691	1.1398488
113	0xc006ea89	-2.108065
114	0xbe972b63	-0.2952529
115	0xbe83d122	-0.25745493
116	0xbf5b8831	-0.85754687
117	0xbf4a8946	-0.7911571
118	0xbf14b2df	-0.58085436
119	0xbfcdc1cc	-1.6074767
120	0x3f878863	1.0588497
121	0x400a9f41	2.16597
122	0xc070f029	-3.7646582
123	0x3f7d2c6c	0.9889591
124	0x3eced206	0.4039461
125	0xbffce193	-1.975634
126	0x3f688ad4	0.90836835
127	0x3f2f0f3b	0.68382615
128	0x3fb4c457	1.4122418
129	0x3f86bdde	1.0526693
130	0x40172a64	2.3619623
131	0x401789bc	2.3677816
132	0x3f536495	0.8257535
133	0x3f8c5784	1.0964208
134	0x3fa5029d	1.2891423
135	0x3f32c6eb	0.69834775
136	0x3ea84a55	0.3286921
137	0xbf840d60	-1.0316582
138	0xbfacb614	-1.3493066
139	0xbf16015d	-0.5859583
140	0x3fd4abb0	1.6614895
141	0xbfa304af	-1.2735804
142	0xbf1301b9	-0.57424504
143	0x3fe0692c	1.7532096
144	0xbeb8d515	-0.3610007
145	0xbf37e698	-0.71836233
146	0xbda1160a	-0.07865532
147	0xbe1a10e0	-0.150455
148	0x3e106b34	0.14103395
149	0x3ec31c65	0.381076
150	0x3ecf0dbb	0.40440163
151	0xbe9fb305	-0.3119127
152	0x3e40ef24	0.18841225
153	0x3f9ef589	1.2418681
154	0x3f8ed27d	1.1157986
155	0x3d6a454d	0.057194997
156	0x3e1be217	0.15222965
157	0x3f1f07d9	0.6212135
158	0x3e2bd6bf	0.16781138
159	0xbfaddbbc	-1.3582683
160	0x3e316730	0.17324519
161	0x3f0133e3	0.504698
162	0x3ee6c236	0.45070046
163	0x3f506b98	0.81414175
164	0x3f2d0c31	0.6759673
165	0x3e94ebed	0.29086247
166	0xbb849719	-0.0040463326
167	0x3cf92ca3	0.030416792
168	0x3edf8795	0.43658128
169	0xbe16843b	-0.1469888
170	0x3e99f4fe	0.30069727
171	0xbed66eaa	-0.41881305
172	0x3d3c0eda	0.0459126
173	0x3e979011	0.296021
174	0x3f791184	0.9729235
175	0x3fb71d8c	1.4305892
176	0x3f26dff0	0.6518545
177	0x3f0d6827	0.5523705
178	0x400871ae	2.1319385
179	0x3fb2bc3e	1.3963697
180	0x3fcb105d	1.5864369
181	0x3f8a18bc	1.0788798
182	0x3fc7dc4d	1.5614105
183	0x3ec84380	0.39113998
184	0x3f6b6bd1	0.9196139
185	0x3e6a7738	0.22897041
186	0xbfb05c3b	-1.3778147
187	0x3fa9410f	1.3222979
188	0x3d9941b1	0.07483233
189	0xbf9fc278	-1.2481222
190	0xbe3ade18	-0.18248785
191	0x3f42cb87	0.7609181
192	0x3f0c01f0	0.54690456
193	0x3fd08064	1.6289182
194	0x3fde85f0	1.7384624
195	0xbe279fba	-0.16369525
196	0x3f2b1cf3	0.6684105
197	0x3f753634	0.9578583
198	0xbf7d2c7a	-0.9889599
199	0xc09e186d	-4.9404817
200	0xbf8882f8	-1.0664968
201	0x3fb0bf7c	1.3808436
202	0x405d6cbe	3.459762
203	0x3fc39b36	1.5281742
204	0xbe4673c9	-0.19380106
205	0x3f981abb	1.1883157
206	0xbdf9529b	-0.12173959
207	0xbf57d510	-0.8430948
208	0xc00d5b68	-2.208704
209	0xbefac05e	-0.4897489
210	0x3fac1642	1.3444293
211	0x3ffe2e81	1.9857942
212	0x3d7186cf	0.058966454
213	0x3fd035b9	1.6266395
214	0x3fb5ba20	1.4197426
215	0x3e803e98	0.25047755
216	0xbe0c4322	-0.13697484
217	0x400e1b07	2.2203996
218	0x3fa3b7b8	1.2790442
219	0x3f34fbdb	0.706968
220	0x3fde665a	1.7374985
221	0x3f88d0c7	1.0688714
222	0x3e383365	0.17988355
223	0x3e06aaea	0.13151136
224	0x3dcdda83	0.100514434
225	0x3fdffdd8	1.7499342
226	0x3f2331bb	0.6374776
227	0x3f5f360d	0.8719185
228	0xbea89492	-0.3292585
229	0xbf80719b	-1.003467
230	0x3cb70dc7	0.022345437
231	0xbe9af5e3	-0.30265722
232	0xbf359219	-0.7092605
233	0x3cae0556	0.021242779
234	0x401ffd32	2.4998288
235	0x404a1af5	3.1578953
236	0x3fcdfcb6	1.6092746
237	0xbee75be1	-0.45187286
238	0x3f4b2e69	0.7936769
239	0x3f11b85e	0.56921947
240	0xc01f7495	-2.4914906
241	0xbfce754b	-1.6129545
242	0xbf7c6334	-0.9858887
243	0xbfaefdd5	-1.3671213
244	0x3fb05e27	1.3778733
245	0x3dbe3fd2	0.092895165
246	0xbea9d8fa	-0.33173352
247	0x3fd83a36	1.6892765
248	0x3f8ef611	1.1168844
249	0xc01c87be	-2.445785
250	0xbf9e693f	-1.2375869
251	0x3e61c09c	0.22046131
252	0xbf8d7329	-1.1050769
253	0xbfaced26	-1.3509872
254	0xbf0526b5	-0.5201219
255	0x3f019cb6	0.50629747

layer1.0.bn2.weight f4 [16]
0	0x403638be	2.8472133
1	0x401efbef	2.4841268
2	0x3f7c7ac2	0.98624814
3	0x3fcbd5e7	1.5924653
4	0x3f90c04b	1.1308683
5	0x3f9dda1b	1.2332186
6	0x3f5cda4c	0.86270595
7	0x3fb000b9	1.375022
8	0x3ff19da4	1.8876233
9	0x3fda9464	1.7076535
10	0x3f83dd5f	1.0301932
11	0x401e1f54	2.470662
12	0x40086c4b	2.1316097
13	0x3f2fc76e	0.6866368
14	0x401c3273	2.4405792
15	0x3fe278ab	1.7693075

layer1.0.bn2.bias f4 [16]
0	0x3f6a1efd	0.91453534
1	0xbf521796	-0.8206724
2	0xbcb282e5	-0.021790931
3	0xbf380f46	-0.71898305
4	0x3fcb4d2a	1.5882924
5	0xbf43603f	-0.76318735
6	0x3e75d914	0.2400859
7	0x3f80cf38	1.0063238
8	0xbe3d18bc	-0.18466467
9	0x3f2befb5	0.6716264
10	0x3f054f18	0.5207381
11	0x3ec3fed7	0.38280365
12	0xbf302e0b	-0.68820256
13	0x3f60c69a	0.8780304
14	0xbec9b8d7	-0.39398834
15	0xbe0a2eea	-0.13494459

layer1.0.bn2.running_mean f4 [16]
0	0xc04d783d	-3.2104638
1	0x4184aa14	16.583046
2	0xc20c4cc1	-35.074955
3	0x42524f2e	52.577324
4	0xc19d8070	-19.687714
5	0x42972611	75.57435
6	0x40db9123	6.861467
7	0xc19ce0c0	-19.609741
8	0xc1670ddc	-14.440884
9	0xc2808b0b	-64.27157
10	0xbfb6640b	-1.4249281
11	0xc1944d42	-18.537724
12	0xc28ae133	-69.43984
13	0xc1cd4da1	-25.662905
14	0xc2333143	-44.798107
15	0x4195a750	18.706696

layer1.0.bn2.running_var f4 [16]
0	0x44c06127	1539.036
1	0x44df1d04	1784.9067
2	0x446071df	897.77924
3	0x44a26625	1299.192
4	0x44391c64	740.4436
5	0x4496f460	1207.6367
6	0x44243ba8	656.9321
7	0x44e41a58	1824.8232
8	0x448e56da	1138.7141
9	0x446f2218	956.5327
10	0x4499d4ea	1230.6536
11	0x449d9793	1260.7367
12	0x44bcc8ee	1510.279
13	0x44cfc8a3	1662.2699
14	0x44a143f1	1290.1232
15	0x449c4c07	1250.3759

layer1.1.conv1.weight f4 [16, 16, 3, 3]
0	0xbf3328fe	-0.69984424
1	0xbed0ea1f	-0.4080362
2	0xbee1784a	-0.44037086
3	0x3ed64309	0.4184802
4	0x403d7da6	2.960794
5	0x3f76240b	0.9614875
6	0x3f610fd4	0.87914777
7	0xbe2f0271	-0.17090775
8	0x3f535b55	0.82561237
9	0xbf8125b2	-1.0089629
10	0xc004b790	-2.0737038
11	0xc0076dd9	-2.1160796
12	0xbf8c763c	-1.0973582
13	0xbf1c5376	-0.6106485
14	0xbf7244e4	-0.9463637
15	0xc028923e	-2.633926
16	0xc0758099	-3.835974
17	0xbfffa9eb	-1.997373
18	0x3f444b54	0.7667744
19	0x3f32a60a	0.69784606
20	0x3fbdda83	1.483231
21	0xbebe38b7	-0.37152645
22	0xc0143a4e	-2.3160586
23	0xbf88408f	-1.0644702
24	0xbfaf5489	-1.3697673
25	0xbe9ebf95	-0.3100554
26	0xbe33d795	-0.17562707
27	0xbf57e55b	-0.84334344
28	0xbff2e32a	-1.8975575
29	0xbff05712	-1.8776572
30	0xbddc4734	-0.107557684
31	0x3e28a6d2	0.16469887
32	0xbd90676d	-0.07050977
33	0x3f23fb01	0.64054877
34	0x3fb01324	1.3755841
35	0x3de631c5	0.112399615
36	0xbf12ccdd	-0.57343847
37	0x3e8404e2	0.25784975
38	0x3e6aba72	0.22922686
39	0xbe480dbb	-0.19536488
40	0xbe261c70	-0.16221786
41	0xbf8aa7f8	-1.083251
42	0x3fec8313	1.8477501
43	0xbe48f348	-0.19624054
44	0x3fda3ae5	1.7049223
45	0x3f1c03d4	0.6094334
46	0x3e55130f	0.20808052
47	0xbf36b0ba	-0.71363413
48	0xbec2e5c1	-0.38065913
49	0xbf8ea9f8	-1.114562
50	0xbf2d80c1	-0.6777459
51	0x3f48e66a	0.78476584
52	0x3d9b3953	0.07579293
53	0x3f02c803	0.51086444
54	0x3f88828a	1.0664837
55	0x40066573	2.099942
56	0x3dad3f28	0.08459312
57	0xbfd73c1e	-1.6815221
58	0x3f2e957a	0.68196833
59	0x3f9d4a3d	1.2288281
60	0x3ed39a41	0.41328624
61	0xc004efac	-2.0771284
62	0x3f7df534	0.99202275
63	0x3e657110	0.22406411
64	0x3f8a54e6	1.0807159
65	0x3ea1db0f	0.3161244
66	0xbac8f88e	-0.0015332864
67	0x3fa58ce0	1.2933617
68	0xbf2e1d1f	-0.68013185
69	0x400eaebe	2.2294154
70	0x3fa89ac0	1.3172226
71	0xbe50f63f	-0.20406435
72	0xbfa5e6d9	-1.2961074
73	0xbf2d92bc	-0.67802024
74	0x3f457ca5	0.7714332
75	0x3f6d81d8	0.9277625
76	0x3e3cdc21	0.18443348
77	0xc07ddff3	-3.9667938
78	0x3ddf84d0	0.10914004
79	0xbd94926e	-0.07254492
80	0x4029d231	2.653454
81	0xc0169683	-2.3529365
82	0xbff60c3b	-1.9222482
83	0xbff95e8f	-1.9481982
84	0x3fc1e73b	1.5148691
85	0x4043d621	3.0599444
86	0x4010a09a	2.2598023
87	0x3f57e504	0.84333825
88	0xbfedf9a6	-1.8591812
89	0x3f3b7580	0.73226166
90	0xbc3f2373	-0.011666167
91	0x3f51d40f	0.819642
92	0x3ebb3f01	0.36571506
93	0x3f139004	0.57641625
94	0x3f8a0f8b	1.0785993
95	0x3f9e43e1	1.2364465
96	0x3e77ffe8	0.24218714
97	0xbe341faa	-0.17590204
98	0xbe3b35af	-0.18282197
99	0xc0808f2b	-4.0174766
100	0xc0acb538	-5.3971214
101	0xc030814e	-2.7578921
102	0xbe895487	-0.26822302
103	0x3f4fbc46	0.8114666
104	0xbfcd68a3	-1.6047558
105	0xbf925d1e	-1.1434667
106	0x3d0c2187	0.03421166
107	0xbf27519c	-0.653589
108	0x3eb674eb	0.35636076
109	0x3eb2b61a	0.34904557
110	0x3d3a8f35	0.04554673
111	0x3eb174b9	0.34659365
112	0x3e8360c6	0.2565977
113	0xbf64ebc8	-0.89422274
114	0x3f81b60b	1.013368
115	0x3ea9002f	0.33007953
116	0x3f4338b9	0.76258427
117	0x3e80a0ed	0.25122777
118	0x3f85e9d5	1.0461985
119	0x3f6b83d1	0.9199801
120	0xbfc77e37	-1.5585393
121	0xbfb4c1de	-1.4121664
122	0xbf2ff111	-0.68727213
123	0xbf816977	-1.011031
124	0xbe8273c8	-0.2547896
125	0xbc61bb33	-0.013777542
126	0x3d9bdc1c	0.07610342
127	0x3e036b2f	0.12833856
128	0x3fcc7597	1.5973386
129	0x3fac6ddd	1.3471028
130	0xbf5a2bd3	-0.8522312
131	0xbc493d12	-0.012282627
132	0x3fbb6958	1.4641523
133	0x4005d3c8	2.091051
134	0x3f95f33a	1.1714852
135	0x3e49542a	0.19661012
136	0x3f8742df	1.0567282
137	0x3fa9694a	1.3235257
138	0x3aa159cd	0.0012310088
139	0x3f02239f	0.50835603
140	0xc01c6953	-2.4439285
141	0x3ec81027	0.39074823
142	0x3e47c8e0	0.19510221
143	0x3fc4aa36	1.5364444
144	0xbf2e3784	-0.6805346
145	0x3e853b29	0.26021698
146	0x3ea98773	0.33111152
147	0xbfe5795a	-1.7927659
148	0x40393cdc	2.8943396
149	0xbff75d25	-1.93253
150	0xbe3261bc	-0.17420095
151	0xbef09991	-0.46992162
152	0x3f61e372	0.8823768
153	0xbe1c7738	-0.15279853
154	0xbf914cc5	-1.1351553
155	0xbeb54d91	-0.3541074
156	0x3fa655a9	1.2994891
157	0x3e98fc76	0.29880112
158	0xbe484ee7	-0.19561349
159	0xbead00fb	-0.3378981
160	0xbedfced0	-0.43712473
161	0x3e7ea14c	0.24866217
162	0x3f5e24ed	0.86775094
163	0x3dc9686b	0.09834369
164	0x3ffa3525	1.9547468
165	0x3e97739a	0.29580384
166	0xc0132709	-2.2992575
167	0x3fc0fa75	1.5076433
168	0x3b94b3b3	0.0045380234
169	0xbf7b66f1	-0.9820395
170	0x3ed9974b	0.4249824
171	0xbf15ff46	-0.5859264
172	0xbf4af0cb	-0.7927367
173	0x3fa20256	1.2656963
174	0xbf4b42b7	-0.79398674
175	0xbfbd8f59	-1.4809371
176	0xbe959c9d	-0.2922105
177	0x3fc81c05	1.5633551
178	0xbe2ced9f	-0.1688752
179	0xbf4ca8b1	-0.799449
180	0xc005544a	-2.0832696
181	0xbfa91afb	-1.3211359
182	0x3ec4c0bb	0.38428292
183	0xc0107ef6	-2.257749
184	0x40188650	2.3831978
185	0xc0192ae7	-2.3932436
186	0x3f1bf4eb	0.6092059
187	0x3e653049	0.223817
188	0x4015298b	2.3306606
189	0xbf3d75a0	-0.74007607
190	0xbf38f486	-0.72248113
191	0xbe7d900c	-0.24761981
192	0x3f589b27	0.84611744
193	0xbfb7212e	-1.4307001
194	0x3eff7e54	0.49901068
195	0x3f9e5e79	1.2372581
196	0xbf2cae97	-0.674539
197	0x3f62f32d	0.88652307
198	0x3bcb39c8	0.0062019564
199	0x3e806e69	0.25084236
200	0xbf9e4bb0	-1.2366848
201	0xc00a795b	-2.163657
202	0x40466eb7	3.1005075
203	0xc017836d	-2.3673966
204	0x402e5339	2.7238295
205	0xbfa262d1	-1.2686406
206	0x3e384ae8	0.17997324
207	0xc017511f	-2.3643262
208	0x3fbc7a21	1.4724771
209	0xbf8f53cf	-1.1197451
210	0xbfe44cc8	-1.7835932
211	0x3ef25730	0.47332144
212	0xc00ce01e	-2.201179
213	0x3e6f7992	0.23386219
214	0x3dc67d4a	0.09691866
215	0xbe071362	-0.13190988
216	0xc00cf31d	-2.2023385
217	0x3f94bbfa	1.1619866
218	0x3e9a61aa	0.30152637
219	0xbff2d555	-1.8971354
220	0x3e376df0	0.17913032
221	0xc095bc2b	-4.6792197
222	0xc01c23a5	-2.4396756
223	0xbf7a3e06	-0.9775089
224	0x400ba5ad	2.181987
225	0xbe37575a	-0.17904416
226	0xbeee7056	-0.4657008
227	0xbe9f2fde	-0.31091207
228	0xbfdbb15d	-1.7163502
229	0x3ff66f1c	1.9252658
230	0xc0035b00	-2.0524292
231	0x4015dee2	2.3417287
232	0xbf9621ef	-1.1729106
233	0x4008b036	2.135755
234	0xbf23b9d3	-0.6395542
235	0xbf85e7f0	-1.0461407
236	0xbf61b1b0	-0.88161755
237	0x3f9f4baf	1.2444972
238	0xbdd18ca5	-0.10231904
239	0x3f86a75b	1.0519823
240	0x3f23c5f7	0.63973945
241	0x3ecc7eb1	0.39940408
242	0x3f222078	0.63330793
243	0xbdaa26cf	-0.083081834
244	0x3ded3401	0.115821846
245	0x4027cfa0	2.6220474
246	0xbec56e9b	-0.38560948
247	0x3ff33ef5	1.9003588
248	0xbdfcab26	-0.123373315
249	0xbfbbfa70	-1.4685802
250	0x3eb934e2	0.3617316
251	0xbe2106b6	-0.15725216
252	0x3f15f617	0.5857863
253	0x3f6667d0	0.90002155
254	0x3f153ff3	0.58300704
255	0x3eb3f7ca	0.35149986

layer1.1.bn1.weight f4 [16]
0	0x40634001	3.5507815
1	0x40349ae0	2.8219528
2	0x402e733e	2.7257838
3	0x3f518b05	0.8185275
4	0x3f953987	1.1658181
5	0x3fd268d6	1.6438243
6	0x3fc2c97f	1.5217742
7	0x3d988e4c	0.07449016
8	0x3f9d9aa5	1.2312819
9	0x40228a8e	2.5397067
10	0x3f8de246	1.1084678
11	0x3feffee0	1.8749657
12	0x3df8b23d	0.12143371
13	0x401f9ffd	2.49414
14	0x3fbe716c	1.4878364
15	0x3f4cc950	0.7999468

layer1.1.bn1.bias f4 [16]
0	0x3f2e8960	0.6817837
1	0x404ad5ff	3.1693113
2	0x3f12bd6a	0.5732027
3	0xbf708ef5	-0.93968135
4	0xbf62ce26	-0.8859581
5	0x3e2fbfaa	0.17162958
6	0xbe4e9c83	-0.20176892
7	0xbf25d370	-0.64775753
8	0xbff8dacd	-1.9441773
9	0x3ecbf585	0.39835754
10	0xbf5fb665	-0.87387687
11	0xba9026f4	-0.0010997937
12	0xbee7be3c	-0.45262325
13	0x3f084e28	0.53244257
14	0xbf45f7eb	-0.7733142
15	0xbfcd2199	-1.6025878

layer1.1.bn1.running_mean f4 [16]
0	0xc2044bb6	-33.073936
1	0xc185a7b8	-16.706894
2	0xc2908b95	-72.27262
3	0xc2c8f19f	-100.47192
4	0xc292e440	-73.4458
5	0xc26fe227	-59.97085
6	0xc29e345d	-79.10227
7	0xc15c983a	-13.787165
8	0x4162308f	14.136855
9	0xc2688c83	-58.13722
10	0xc2532e52	-52.795235
11	0xc2db0093	-109.50112
12	0xc13e0c64	-11.878025
13	0xc12589b5	-10.34612
14	0xc1ba091f	-23.254454
15	0xc235f8a4	-45.492813

layer1.1.bn1.running_var f4 [16]
0	0x455e57f7	3557.4978
1	0x44c24d16	1554.4089
2	0x458858af	4363.0854
3	0x453d2375	3026.216
4	0x4508e133	2190.075
5	0x455331e4	3379.1182
6	0x455265a8	3366.3535
7	0x422810da	42.016457
8	0x44ceccc7	1654.3993
9	0x454a03f7	3232.2478
10	0x450cb761	2251.4612
11	0x458de586	4540.6904
12	0x422610da	41.516457
13	0x454609ee	3168.6206
14	0x45918368	4656.426
15	0x450edb54	2285.708

layer1.1.conv2.weight f4 [16, 16, 3, 3]
0	0xbe72eaac	-0.23722333
1	0xbfb6d71c	-1.4284396
2	0xbf667e39	-0.9003635
3	0x3f0e5555	0.55598956
4	0xbcd0fa7e	-0.025510069
5	0xc0272607	-2.611696
6	0x3e5b86c9	0.21438135
7	0x3f887573	1.0660843
8	0xbf84a3a0	-1.0362434
9	0xbdcaed81	-0.099085815
10	0xbd557d13	-0.052121233
11	0x3f8005a1	1.0001718
12	0xbd40d287	-0.047075775
13	0x3f8964fc	1.0733943
14	0xbf79f645	-0.976414
15	0x3ddb7bf1	0.10716999
16	0xbf3e9abe	-0.7445487
17	0xbfa34c07	-1.2757577
18	0x3eb18701	0.34673312
19	0x3f8c0532	1.0939085
20	0x401ea4d0	2.4788094
21	0x3e345493	0.17610388
22	0x400aad93	2.1668441
23	0x402ae39f	2.670143
24	0x3f0175a0	0.50570107
25	0x3ec8a8d7	0.39191315
26	0x3f05c1cb	0.5224883
27	0x3f9586e2	1.1681788
28	0x3ee29f3c	0.4426211
29	0x3ddfc92d	0.10927043
30	0x3e8ace91	0.27110723
31	0xc0151468	-2.3293705
32	0xbfe07c67	-1.7537965
33	0x3e03fa42	0.12888435
34	0x3e2be724	0.16787392
35	0x3f450fb9	0.76977116
36	0xbea54368	-0.3227799
37	0xbf4c9e3e	-0.7992896
38	0xbf8e56b2	-1.1120207
39	0x3f3918d4	0.7230351
40	0x3f18ab54	0.59636426
41	0x3f78516d	0.96999246
42	0x3f5392e9	0.8264604
43	0xbe9770f1	-0.29578355
44	0x3f7949c2	0.9737817
45	0x3fafb30f	1.3726519
46	0xbf9b0f18	-1.2113981
47	0xbea29713	-0.31755885
48	0x3fb81e89	1.4384319
49	0xc0714173	-3.7696197
50	0xbf4c71f2	-0.79861367
51	0xbeb9440b	-0.36184725
52	0xbf947b19	-1.1600066
53	0x3f278149	0.6543165
54	0xbf99c798	-1.2014036
55	0xbf7f7e89	-0.9980245
56	0x40787cfe	3.882629
57	0xbfc596e6	-1.5436676
58	0x3e9e719f	0.3094606
59	0x40168a34	2.3521852
60	0xbfda4f84	-1.7055516
61	0xbf103db9	-0.5634418
62	0x3d72d4a4	0.05928482
63	0xbe9d1270	-0.3067813
64	0xbeb445cf	-0.3520951
65	0xbe0221c1	-0.12708189
66	0xbe0f048d	-0.1396658
67	0xbe63c14b	-0.22241704
68	0xbd585117	-0.05281171
69	0x3e8a929f	0.27064988
70	0xbc9faad0	-0.01949063
71	0x3e2ed0d4	0.17071849
72	0xbfcc6cc7	-1.5970696
73	0xbfdaf598	-1.7106199
74	0xbffc3aec	-1.9705482
75	0xbfa9539e	-1.3228643
76	0xbf8a8724	-1.0822492
77	0xc001c6bc	-2.0277548
78	0xbf6eb7e9	-0.93249375
79	0x3f663235	0.8992036
80	0xbf995459	-1.1978866
81	0xbfc631a1	-1.5483896
82	0xc0238684	-2.5550852
83	0xbf233319	-0.63749844
84	0xbfe9809e	-1.8242376
85	0xbf95c58c	-1.1700912
86	0x3fa50768	1.2892885
87	0xbf832854	-1.0246682
88	0xbf53c70d	-0.827256
89	0x3f65cb80	0.8976364
90	0xbf150527	-0.58210987
91	0xbf92cb88	-1.1468363
92	0xc00e5eaf	-2.224529
93	0xbf50d13e	-0.8156928
94	0x3f6bb215	0.92068607
95	0xbfc65f5b	-1.549785
96	0x3e4fb034	0.2028206
97	0xbe2af613	-0.16695432
98	0x3e363927	0.1779524
99	0xbf9c31fd	-1.2202755
100	0x3fd251b7	1.6431187
101	0x40a692c9	5.205418
102	0xc0428f86	-3.04001
103	0x3fc6c589	1.5529033
104	0x408d1b3b	4.409574
105	0xbfa6ee43	-1.3041462
106	0x3fc906d7	1.5705212
107	0x3fca9ce1	1.5829126
108	0xbe607e3b	-0.21923153
109	0xbddc07b5	-0.107436575
110	0x3e066a22	0.13126424
111	0xbb988af9	-0.0046552387
112	0xbe0b3e4e	-0.13597986
113	0x3dba3c95	0.09093586
114	0x3e5f2657	0.21791969
115	0x3df2b3a4	0.1185067
116	0x3e217b25	0.15769632
117	0xbf4375c8	-0.76351595
118	0xbfaabdb6	-1.3339145
119	0xbfd0413c	-1.6269908
120	0x3eeb6ab9	0.4597986
121	0xbfc2cfa3	-1.5219616
122	0xc02f00c4	-2.7344217
123	0x3df603ca	0.120124415
124	0xbf840d3a	-1.0316536
125	0xbf7f10bb	-0.99634904
126	0xbe11f218	-0.14252508
127	0x3f14666b	0.5796878
128	0x3e808c2d	0.25106946
129	0x3da6804a	0.08129938
130	0x3eca5630	0.3951888
131	0xbf0a0f43	-0.5392954
132	0xbe654253	-0.22388582
133	0x3f2034a1	0.62580305
134	0xbd2db29e	-0.04240667
135	0x3fa3f39d	1.280872
136	0xbf22b6ef	-0.63560385
137	0xc0281260	-2.6261215
138	0x3f66f356	0.9021505
139	0xbf6d0668	-0.925879
140	0xbf6b926a	-0.92020285
141	0x3f9ab2cd	1.2085816
142	0x3ed5ad98	0.41734004
143	0xbf4d5c90	-0.80219364
144	0xc0884369	-4.258229
145	0xc0746b88	-3.8190632
146	0xc00f389c	-2.2378302
147	0x402fbc19	2.7458556
148	0x40698aee	3.6491046
149	0x401280a9	2.2891028
150	0x3f6479ae	0.8924817
151	0x3e5f5594	0.21809989
152	0x3e463ff1	0.19360329
153	0x3fa75ed8	1.3075819
154	0xbfc111bf	-1.5083541
155	0xbf8ef83a	-1.1169503
156	0xbe095ef5	-0.1341513
157	0x3fc0efbe	1.5073164
158	0xbe4a3915	-0.19748338
159	0x3f13585f	0.5755672
160	0x3f4fc513	0.81160086
161	0xbf189352	-0.5959979
162	0xbf539a06	-0.82656896
163	0xbf18e320	-0.59721565
164	0x3f2c50bf	0.6731071
165	0x3eb6bcbc	0.35690868
166	0x3ec943eb	0.3930963
167	0xbf07808b	-0.52930516
168	0x3d4b7fd7	0.049682464
169	0x3f094ddf	0.53634447
170	0x3edf0724	0.43560135
171	0xbf40a0d5	-0.7524541
172	0xc0347d8c	-2.8201628
173	0xc00c3c3e	-2.191177
174	0xbe1891cf	-0.14899372
175	0xbdcfaf94	-0.10140911
176	0x3e702f75	0.23455603
177	0xbe08f76a	-0.13375631
178	0xbe46372e	-0.19356987
179	0x3f153635	0.5828584
180	0xbf6d4cd1	-0.9269534
181	0xbe3b95cd	-0.18318863
182	0x3ed5eac9	0.4178069
183	0xbdfe6b81	-0.124228485
184	0x3e25aad3	0.16178446
185	0xbeb37621	-0.35051063
186	0x3f0948e3	0.5362684
187	0xbf1aa479	-0.60407215
188	0xbfc717cd	-1.5554138
189	0xbf20dd1a	-0.62837374
190	0xbfcc40b2	-1.5957243
191	0x3e5c5f5d	0.21520753
192	0x3dc54767	0.096327595
193	0xbd982d43	-0.07430508
194	0xbfcc4a5e	-1.5960195
195	0x3f39bf3b	0.7255742
196	0x3fbfd04b	1.4985441
197	0x4006aa42	2.1041417
198	0x3f459231	0.77176195
199	0x3f1ce2e8	0.6128373
200	0x3f815026	1.0102584
201	0x3eb937d0	0.36175394
202	0xbf9d3161	-1.2280694
203	0x3eb3995f	0.3507795
204	0x3e926a12	0.2859655
205	0xbf1fe7bc	-0.62462974
206	0x3f1a9492	0.6038295
207	0xba92e561	-0.0011207276
208	0x3e52f033	0.20599441
209	0x3df325ce	0.11872445
210	0x3d8b5959	0.06804151
211	0x3e3d4639	0.18483819
212	0x3e63f6ef	0.22262166
213	0x3dbbac62	0.09163739
214	0x3e83be99	0.25731352
215	0x3e4cf4a2	0.20015195
216	0xbf588110	-0.84571934
217	0xbeb38762	-0.35064226
218	0xbfbfb6d6	-1.4977672
219	0xbf96c272	-1.177809
220	0xbcef41e8	-0.029206231
221	0x3f3ff881	0.7498856
222	0xbfb7438f	-1.4317492
223	0x3f12f1f0	0.5740042
224	0x3e739eb9	0.23791017
225	0x3fea14b9	1.8287574
226	0x3fb3082a	1.3986866
227	0x3fda832a	1.7071278
228	0x3f9d113c	1.2270885
229	0xbf7076b4	-0.93931127
230	0xbdf6166e	-0.12015997
231	0xbf5550d7	-0.83326477
232	0xbf105c76	-0.56391084
233	0xbdd11b50	-0.102102876
234	0xbff14356	-1.8848674
235	0xc0220940	-2.5318146
236	0xc000ff7c	-2.0155935
237	0xbd989461	-0.07450176
238	0xbf88378f	-1.0641955
239	0xbe4a17ad	-0.19735594
240	0x3f8d5dc7	1.1044244
241	0x3ebdaef0	0.3704753
242	0x3ef67680	0.48137283
243	0x3f3782e5	0.71684104
244	0x3d41561d	0.047201265
245	0xbf0ce9a6	-0.5504402
246	0x3b7e616a	0.0038815388
247	0x3f56f515	0.83967716
248	0x3cb0678c	0.02153375
249	0x3ec05319	0.37563398
250	0xbea1bb4e	-0.31588215
251	0xbef74345	-0.4829351
252	0xbd8dfa2d	-0.06932483
253	0x3d0d46ba	0.03449128
254	0x3d790198	0.060792536
255	0xbe31ea20	-0.17374468

layer1.1.bn2.weight f4 [16]
0	0x3fc824ce	1.5636232
1	0x40199558	2.3997402
2	0x3fb66b89	1.4251567
3	0x406c8cec	3.6961012
4	0x3f9869b6	1.190726
5	0x3f8bb681	1.0915071
6	0x3f2fcde8	0.68673563
7	0x40838d9c	4.1110363
8	0x40667d97	3.6014154
9	0x3fddc06b	1.7324346
10	0x3eb6f4c4	0.35733616
11	0x404099f0	3.0093956
12	0x3f8bdaa9	1.0926105
13	0x3f1ccce7	0.61250156
14	0x3f8a230b	1.0791944
15	0x3fcf0b08	1.6175241

layer1.1.bn2.bias f4 [16]
0	0xbf4d5ce7	-0.8021988
1	0xbfae4872	-1.3615859
2	0xbf515a7b	-0.8177869
3	0xbfc1ff56	-1.5156047
4	0xbda73336	-0.081640646
5	0xbf219a15	-0.63125736
6	0x3dd5534b	0.104162775
7	0xbfa02e03	-1.2514042
8	0xc0206632	-2.5062375
9	0xbfc0024d	-1.5000702
10	0xbe9fd838	-0.3121965
11	0xc0078a44	-2.117814
12	0xbef19f8a	-0.4719203
13	0x3e82c421	0.2554026
14	0xbf5833d1	-0.84454066
15	0xbf98bd25	-1.1932722

layer1.1.bn2.running_mean f4 [16]
0	0xc15fb4d4	-13.9816475
1	0x40089d6d	2.1346085
2	0xc2051ee4	-33.280167
3	0x3f4b1f31	0.7934447
4	0xc1b1b845	-22.214975
5	0x41973fe9	18.906206
6	0xc0f06325	-7.5121026
7	0xc12d7335	-10.840627
8	0x41124fd6	9.144491
9	0xc1d957bf	-27.167845
10	0xc121afb8	-10.1054
11	0xc12aa322	-10.664827
12	0xc20527c8	-33.28885
13	0x40b6bb89	5.7103925
14	0xc22680a1	-41.625614
15	0x411ce450	9.80574

layer1.1.bn2.running_var f4 [16]
0	0x445eb446	890.8168
1	0x441c9940	626.39453
2	0x442a7fbc	681.99585
3	0x442d475c	693.115
4	0x4452e3a3	843.5568
5	0x440c6dfa	561.7184
6	0x441bb570	622.83496
7	0x44c286d6	1556.2136
8	0x44479004	798.25024
9	0x44374fe8	733.24854
10	0x444404ca	784.0748
11	0x44384151	737.02057
12	0x44132d2c	588.7058
13	0x442b9389	686.30524
14	0x4412290c	584.64136
15	0x44176b7c	605.67944

layer2.0.conv1.weight f4 [32, 16, 3, 3]
0	0x3fc88e21	1.5668374
1	0x3fcca207	1.5986947
2	0xbfc920c5	-1.5713125
3	0x3f2f2af3	0.6842491
4	0xbf5d25e2	-0.8638593
5	0xbf8d1a14	-1.1023583
6	0x3fa492f5	1.2857348
7	0xbf1744f7	-0.59089607
8	0xbf38f0de	-0.72242534
9	0x3fc13c79	1.509658
10	0xbf4451e0	-0.7668743
11	0xbed99ad3	-0.42500934
12	0xbfaaa761	-1.333233
13	0xbe4d542b	-0.20051639
14	0xbfb66048	-1.4248133
15	0xc0227a19	-2.5387022
16	0xbeff3cf0	-0.4985118
17	0x3ea809a0	0.32819843
18	0x3e765a70	0.24057937
19	0x3f05307d	0.5202711
20	0xbe70530f	-0.23469184
21	0xbf87a7c2	-1.0598071
22	0x3f28788d	0.65808946
23	0xbf364d7e	-0.71211994
24	0xbf808d97	-1.004321
25	0x3fd60086	1.671891
26	0xbf8b6867	-1.0891236
27	0x3f33d039	0.702396
28	0x3f895e0e	1.0731828
29	0xbeacbd45	-0.3373815
30	0x3e80dcb1	0.25168374
31	0xc07dc148	-3.964922
32	0x3e5d78c6	0.21628103
33	0x3eb32278	0.34987235
34	0xbfa2dfea	-1.2724583
35	0xc03c7a4c	-2.9449644
36	0x3fb004da	1.375148
37	0x3f102b44	0.5631602
38	0xbd8edc0b	-0.069755636
39	0x3ddce3f8	0.10785669
40	0x3e32f120	0.17474794
41	0xbf88a4c0	-1.0675278
42	0x3e8a56f4	0.27019465
43	0x3d2fb8f3	0.04290099
44	0x3dac4547	0.08411651
45	0x3fc05c7e	1.5028226
46	0xbeb5edea	-0.35533077
47	0xbe08c601	-0.13356782
48	0x3fd4dfcc	1.6630797
49	0x3f134600	0.57528687
50	0xbe88da18	-0.26728892
51	0xbf14b3be	-0.58086765
52	0x3d5f45d7	0.054509964
53	0xbfa3034b	-1.273538
54	0xbec5d17a	-0.3863638
55	0x3e5648d5	0.2092622
56	0x3db72799	0.089430995
57	0xbf534072	-0.8252021
58	0xbf220e72	-0.6330329
59	0x3fc86226	1.5654953
60	0x3f33ebe8	0.7028184
61	0x3e20a8ff	0.15689467
62	0x3f647c0d	0.89251786
63	0x3efbab6e	0.49154228
64	0x3f7eb95b	0.9950158
65	0xbfa72cb3	-1.3060516
66	0x3d2f6ac6	0.042826436
67	0xc01f62ea	-2.4904122
68	0xbfe4d0d5	-1.787623
69	0xbf0dee34	-0.55441594
70	0xbf5e3f9b	-0.86815804
71	0xbd5aa124	-0.053376332
72	0x3d2e6d08	0.04258445
73	0xc0132ce2	-2.2996144
74	0xbe76c918	-0.24100149
75	0xbfd8e6be	-1.6945417
76	0xbfab2960	-1.3372002
77	0xc06e489f	-3.7231824
78	0xbfa083e8	-1.2540255
79	0xbfa62f9e	-1.2983282
80	0xc00d7801	-2.2104495
81	0x3fcfba7c	1.6228786
82	0xbf0eef24	-0.5583365
83	0xbf933c92	-1.150286
84	0xc00c9994	-2.1968737
85	0xc052fc4d	-3.2966492
86	0xbfd7135d	-1.6802784
87	0xbfa8af04	-1.317841
88	0xbf775a6d	-0.96622354
89	0xbff1fffd	-1.8906246
90	0x40142bba	2.3151689
91	0xbeebbac4	-0.46040928
92	0x3ebabc8e	0.3647198
93	0xbf095405	-0.5364383
94	0xc04fe81b	-3.2485416
95	0xc00e14d3	-2.220021
96	0xbf2077fd	-0.6268309
97	0xbf963f5b	-1.1738085
98	0xbed915fc	-0.42399585
99	0xbe88fcb7	-0.26755306
100	0x3ec135f9	0.3773649
101	0x3e4c28d1	0.19937445
102	0xbfde2cba	-1.73574
103	0xbf82cce2	-1.0218775
104	0xc038fd63	-2.8904655
105	0x3e1c90aa	0.1528956
106	0xbff5413b	-1.9160532
107	0xc06d7022	-3.709969
108	0x3e5faa0a	0.21842209
109	0xbf946706	-1.159394
110	0xbfe0c8d3	-1.7561287
111	0xbf609897	-0.87732834
112	0xbf91fec7	-1.1405877
113	0xc07562b4	-3.8341494
114	0xbf794c86	-0.9738239
115	0xbea5caf7	-0.32381412
116	0xbfa3ef64	-1.2807431
117	0xbd582250	-0.052767098
118	0x3fc98017	1.5742215
119	0x3fb04cea	1.3773472
120	0x3f3b2f60	0.73119164
121	0x3fac7382	1.347275
122	0x3fe1fd5a	1.7655442
123	0xbf1e4772	-0.61827767
124	0xbeb2914f	-0.34876487
125	0x3db30186	0.08740525
126	0xbeb15822	-0.34637552
127	0xbf186fea	-0.5954577
128	0x3ed43c7b	0.41452393
129	0xbd951b55	-0.07280604
130	0xbf971b92	-1.1805289
131	0xbea3b1fc	-0.3197173
132	0x3ea2d016	0.31799382
133	0xbfcf1170	-1.6177197
134	0xbed29edd	-0.41136828
135	0x3f4d68df	0.80238146
136	0xc01b6189	-2.427828
137	0xbf064c45	-0.5246013
138	0xbfda36bd	-1.7047955
139	0xc0418123	-3.0235069
140	0xc02c6d9a	-2.6941895
141	0xbe5a4c9a	-0.21318284
142	0xc01d2a79	-2.4557173
143	0xc0151a8a	-2.3297448
144	0x3f72389d	0.94617635
145	0xbe5e57e5	-0.21713217
146	0xbf1ad0e9	-0.6047502
147	0xbf9a0ed3	-1.2035774
148	0xbf769317	-0.9631819
149	0xbfce4265	-1.6114012
150	0xbf6bda14	-0.92129636
151	0x3fc85266	1.5650146
152	0x3fd2face	1.648279
153	0x3abdd962	0.0014484341
154	0xbf819473	-1.0123428
155	0x3fbf4be3	1.4945034
156	0xbf8a9f45	-1.0829855
157	0xc007c6f5	-2.1215184
158	0xc0264ccb	-2.598437
159	0x3e0ddace	0.13852999
160	0xbdcfa150	-0.1013819
161	0x3e991d6c	0.2990526
162	0xbdf47128	-0.11935645
163	0xbf728f87	-0.94750255
164	0xbfcb2563	-1.5870785
165	0xbfa6c259	-1.302806
166	0xc00bde38	-2.1854382
167	0xc019df8e	-2.4042697
168	0xbf519949	-0.8187452
169	0x3d8d88fb	0.069108926
170	0xbfeb045a	-1.8360703
171	0xc00bf6a1	-2.186928
172	0x3ee434a7	0.4457142
173	0x3e8c5559	0.27408865
174	0xbf2d0d7c	-0.675987
175	0xc03bd80e	-2.935062
176	0xbf531d97	-0.82467026
177	0xc0208387	-2.5080278
178	0xc019b215	-2.4014943
179	0xbe9743b2	-0.29543835
180	0xbecd463f	-0.40092656
181	0xbebb6188	-0.36597848
182	0xbf57b680	-0.8426285
183	0x3d88549f	0.06656765
184	0x3e90ff2b	0.28319678
185	0x3ec442c4	0.38332188
186	0x3edd980d	0.43280068
187	0x3f5face3	0.8737318
188	0x3f9328d3	1.1496834
189	0xbf5ea65d	-0.869726
190	0x3f2baa2c	0.67056537
191	0xbea6631c	-0.3249749
192	0xbf9b7559	-1.2145187
193	0x3f888517	1.0665616
194	0xbf84cf42	-1.037575
195	0xbf55a8d0	-0.8346071
196	0xbe83a316	-0.25710362
197	0xbf77b3c8	-0.967587
198	0xbf4485ef	-0.76766866
199	0xbcb9ec82	-0.022695784
200	0xbf7bc9c2	-0.98354733
201	0xbf7eb198	-0.99489737
202	0xbf36fa4a	-0.7147566
203	0xbf27ee1a	-0.6559769
204	0x40016337	2.0216806
205	0x3fa2c054	1.2714944
206	0x3fe018bd	1.750755
207	0xbee8977b	-0.4542807
208	0xbf3936b6	-0.7234911
209	0xbf83eaf5	-1.0306078
210	0xbf7ca582	-0.98690045
211	0xbee9702b	-0.4559339
212	0x3ea1430b	0.31496462
213	0x3ece48ec	0.4029001
214	0xbfc38e0c	-1.5277724
215	0x3fca6b61	1.581402
216	0xc0129077	-2.2900674
217	0xc00d3b5d	-2.2067482
218	0xbd058a70	-0.032602727
219	0xbef61398	-0.48061824
220	0xc036e880	-2.8579407
221	0xbff93956	-1.9470623
222	0x3fa0293d	1.2512585
223	0xbec1d032	-0.37854153
224	0xbeb10dd0	-0.3458085
225	0x3f822647	1.0167931
226	0x4007cf6c	2.122035
227	0x3fa9a585	1.3253638
228	0xc0655044	-3.583024
229	0xbfba9287	-1.4575967
230	0xbfa621f5	-1.2979113
231	0x3fc19e1e	1.5126379
232	0x40036f16	2.0536551
233	0x3fb292ae	1.3951013
234	0x3ea657ce	0.32488865
235	0x3f85c73a	1.0451424
236	0x3e40cc2e	0.18827888
237	0xbe8c474f	-0.27398154
238	0xbed2c023	-0.41162214
239	0xbfa4bdfe	-1.2870481
240	0x3e598bd8	0.21244752
241	0x3d9f750b	0.07785996
242	0xbea0403d	-0.3129901
243	0x40353deb	2.8319042
244	0x3ff4510d	1.9087235
245	0x3fe97639	1.8239204
246	0xbfcf10d3	-1.6177009
247	0xbf8c573b	-1.0964121
248	0xbfe9b15e	-1.8257253
249	0xc01d88ca	-2.461474
250	0xbf946fa2	-1.1596568
251	0xbf5aa31f	-0.85405153
252	0xbd72e5c7	-0.059301164
253	0xbf14ba6c	-0.5809696
254	0xbfffa0ed	-1.9970986
255	0x3e75bbbd	0.23997398

layer2.0.bn1.weight f4 [32]
0	0x3ff0d182	1.8813937
1	0x3fe49a4f	1.7859591
2	0x3fcd3da4	1.6034436
3	0x40213047	2.5185716
4	0x3fbbed7c	1.468185
5	0x4024d0e6	2.5752501
6	0x4015cc91	2.3406107
7	0x4017eedf	2.3739545
8	0x3fced94d	1.6160065
9	0x3fe5acf3	1.7943405
10	0x3fc76295	1.557696
11	0x403d58d0	2.9585457
12	0x3ff88b9a	1.9417603
13	0x3fb7b62a	1.4352467
14	0x400c4b38	2.192091
15	0x401aa63c	2.4163961
16	0x3fdd6f6f	1.7299632
17	0x401a575c	2.411582
18	0x3f855050	1.0415134
19	0x3ffae8d8	1.9602308
20	0x4039d6a7	2.9037263
21	0x3fdbec75	1.7181536
22	0x3ff483f7	1.9102772
23	0x4003fdb3	2.0623596
24	0x4022a8be	2.5415492
25	0x3fc69aec	1.5516028
26	0x401dc1e7	2.4649599
27	0x400e4c3a	2.2234025
28	0x4023bd2d	2.5584214
29	0x3ffeacfc	1.9896541
30	0x3ffacfbf	1.9594649
31	0x4005b2fc	2.0890493

layer2.0.bn1.bias f4 [32]
0	0x3f0361b5	0.51320964
1	0xbf9a4cb8	-1.2054663
2	0xbf9bc82f	-1.2170466
3	0xbf48766e	-0.7830571
4	0xbf9575bb	-1.1676553
5	0xbf3b1cc3	-0.7309076
6	0xbf6d4898	-0.92688894
7	0xbf418f02	-0.7560884
8	0xbeed111e	-0.46302122
9	0xbdf387be	-0.11891125
10	0xbf43a059	-0.76416546
11	0xbec16084	-0.37768948
12	0xbf8bfcb1	-1.093649
13	0xbf109427	-0.5647606
14	0xbf1291cc	-0.5725372
15	0xbf39e94e	-0.7262162
16	0xbf00bbc0	-0.50286484
17	0xbf0f8918	-0.56068563
18	0xbf5c09a0	-0.85952187
19	0xbf3fa241	-0.74856955
20	0xbf1c5cb0	-0.6107893
21	0xbd9459ca	-0.072436884
22	0xbf933fe8	-1.1503878
23	0xbf2dc9e4	-0.67886186
24	0xbf611716	-0.8792585
25	0xbf9f4e01	-1.244568
26	0xbf63ddd1	-0.8901034
27	0x3cb3ce36	0.021948915
28	0xbf858221	-1.0430337
29	0xbf8dd0ff	-1.1079406
30	0xbf3f43dc	-0.7471292
31	0xbf16ba0e	-0.58877647

layer2.0.bn1.running_mean f4 [32]
0	0xc2f968ea	-124.70491
1	0xc2696416	-58.34774
2	0x429a5b91	77.17884
3	0xc242dafd	-48.713856
4	0x42fac9d8	125.394226
5	0xbfd2b83f	-1.6462477
6	0xc14cdae9	-12.803445
7	0xc1be34a2	-23.7757
8	0xc2211989	-40.274937
9	0xc1d4b296	-26.5872
10	0xc183c298	-16.470016
11	0xc2460271	-49.502384
12	0xc21be9e5	-38.978413
13	0xc2f66072	-123.18837
14	0xc2b56c9a	-90.71211
15	0xc29f1c10	-79.55481
16	0x411d3b0e	9.826918
17	0xc1c6e50a	-24.861835
18	0x41b4c576	22.596416
19	0xc3056aa1	-133.41652
20	0xc19202d1	-18.251375
21	0xc26c4f31	-59.077335
22	0xc3094f54	-137.30988
23	0xc192de46	-18.358532
24	0xc23f5cbf	-47.840572
25	0xc15a29b4	-13.635181
26	0xc14f8db7	-12.972098
27	0xc2c91960	-100.54956
28	0x4224ea69	41.228916
29	0xc04b0a89	-3.172518
30	0xc1812baa	-16.14632
31	0xc28a7d05	-69.24418

layer2.0.bn1.running_var f4 [32]
0	0x45d5f2c9	6846.348
1	0x4579b1c9	3995.1116
2	0x451d9c45	2521.7668
3	0x45d2fa3b	6751.279
4	0x459042e7	4616.363
5	0x45b51406	5794.503
6	0x45ea66ca	7500.8486
7	0x45bdcbde	6073.4834
8	0x452f83ba	2808.233
9	0x45a61398	5314.449
10	0x457a162b	4001.3855
11	0x46192309	9800.759
12	0x45b376ea	5742.8643
13	0x45a685b2	5328.712
14	0x45d3148d	6754.569
15	0x45fb9c5b	8051.5444
16	0x456082df	3592.1794
17	0x45ca24bb	6468.5913
18	0x4597aa50	4853.289
19	0x45426984	3110.5947
20	0x45d2fe9c	6751.826
21	0x45e25440	7242.5312
22	0x45cec313	6616.3843
23	0x45fb7b21	8047.391
24	0x45ad235f	5540.4214
25	0x453ed190	3053.0977
26	0x45d64f54	6857.916
27	0x45a46b20	5261.3906
28	0x4575c5a8	3932.3535
29	0x45745799	3909.4749
30	0x459317e2	4706.9854
31	0x4590db64	4635.424
